…
[2/8] Building dataset (computing HOC features) ...
   Total: 74,250  IQ=(74250, 128, 2)  AP=(74250, 128, 2)  HOC=(74250, 10)
   Balance: min=6750  max=6750
   HOC sample (first frame): [ 0.0041  0.2471  0.0311  0.0439  0.0234  0.0326 -0.0627 -0.9494 -0.169
  0.0234]

[3/8] Splitting 70 / 15 / 15 ...
   Train: 52,004  Val: 11,108  Test: 11,138

[4/8] Building model v7 ...
Model: "RadioML_v7"
┏━━━━━━━━━━━━━━━━━━━━━┳━━━━━━━━━━━━━━━━━━━┳━━━━━━━━━━━━┳━━━━━━━━━━━━━━━━━━━┓
┃ Layer (type)        ┃ Output Shape      ┃    Param # ┃ Connected to      ┃
┡━━━━━━━━━━━━━━━━━━━━━╇━━━━━━━━━━━━━━━━━━━╇━━━━━━━━━━━━╇━━━━━━━━━━━━━━━━━━━┩
│ iq_input            │ (None, 128, 2)    │          0 │ -                 │
│ (InputLayer)        │                   │            │                   │
├─────────────────────┼───────────────────┼────────────┼───────────────────┤
│ ap_input            │ (None, 128, 2)    │          0 │ -                 │
│ (InputLayer)        │                   │            │                   │
├─────────────────────┼───────────────────┼────────────┼───────────────────┤
│ iq_stem             │ (None, 128, 64)   │        448 │ iq_input[0][0]    │
│ (ComplexConv1D)     │                   │            │                   │
├─────────────────────┼───────────────────┼────────────┼───────────────────┤
│ ap_stem (Conv1D)    │ (None, 128, 32)   │        448 │ ap_input[0][0]    │
├─────────────────────┼───────────────────┼────────────┼───────────────────┤
│ iq_stem_bn          │ (None, 128, 64)   │        256 │ iq_stem[0][0]     │
│ (ComplexBatchNorm)  │                   │            │                   │
├─────────────────────┼───────────────────┼────────────┼───────────────────┤
│ batch_normalizatio… │ (None, 128, 32)   │        128 │ ap_stem[0][0]     │
│ (BatchNormalizatio… │                   │            │                   │
├─────────────────────┼───────────────────┼────────────┼───────────────────┤
│ activation          │ (None, 128, 64)   │          0 │ iq_stem_bn[0][0]  │
│ (Activation)        │                   │            │                   │
├─────────────────────┼───────────────────┼────────────┼───────────────────┤
│ activation_1        │ (None, 128, 32)   │          0 │ batch_normalizat… │
│ (Activation)        │                   │            │                   │
├─────────────────────┼───────────────────┼────────────┼───────────────────┤
│ dropout (Dropout)   │ (None, 128, 64)   │          0 │ activation[0][0]  │
├─────────────────────┼───────────────────┼────────────┼───────────────────┤
│ dropout_1 (Dropout) │ (None, 128, 32)   │          0 │ activation_1[0][… │
├─────────────────────┼───────────────────┼────────────┼───────────────────┤
│ complex_conv1d      │ (None, 128, 64)   │     14,336 │ dropout[0][0]     │
│ (ComplexConv1D)     │                   │            │                   │
├─────────────────────┼───────────────────┼────────────┼───────────────────┤
│ conv1d_6 (Conv1D)   │ (None, 128, 32)   │      7,168 │ dropout_1[0][0]   │
├─────────────────────┼───────────────────┼────────────┼───────────────────┤
│ complex_batch_norm  │ (None, 128, 64)   │        256 │ complex_conv1d[0… │
│ (ComplexBatchNorm)  │                   │            │                   │
├─────────────────────┼───────────────────┼────────────┼───────────────────┤
│ batch_normalizatio… │ (None, 128, 32)   │        128 │ conv1d_6[0][0]    │
│ (BatchNormalizatio… │                   │            │                   │
├─────────────────────┼───────────────────┼────────────┼───────────────────┤
│ activation_2        │ (None, 128, 64)   │          0 │ complex_batch_no… │
│ (Activation)        │                   │            │                   │
├─────────────────────┼───────────────────┼────────────┼───────────────────┤
│ activation_4        │ (None, 128, 32)   │          0 │ batch_normalizat… │
│ (Activation)        │                   │            │                   │
├─────────────────────┼───────────────────┼────────────┼───────────────────┤
│ complex_conv1d_1    │ (None, 128, 64)   │     14,336 │ activation_2[0][… │
│ (ComplexConv1D)     │                   │            │                   │
├─────────────────────┼───────────────────┼────────────┼───────────────────┤
│ conv1d_7 (Conv1D)   │ (None, 128, 32)   │      7,168 │ activation_4[0][… │
├─────────────────────┼───────────────────┼────────────┼───────────────────┤
│ complex_batch_norm… │ (None, 128, 64)   │        256 │ complex_conv1d_1… │
│ (ComplexBatchNorm)  │                   │            │                   │
├─────────────────────┼───────────────────┼────────────┼───────────────────┤
│ batch_normalizatio… │ (None, 128, 32)   │        128 │ conv1d_7[0][0]    │
│ (BatchNormalizatio… │                   │            │                   │
├─────────────────────┼───────────────────┼────────────┼───────────────────┤
│ add (Add)           │ (None, 128, 64)   │          0 │ complex_batch_no… │
│                     │                   │            │ dropout[0][0]     │
├─────────────────────┼───────────────────┼────────────┼───────────────────┤
│ add_1 (Add)         │ (None, 128, 32)   │          0 │ batch_normalizat… │
│                     │                   │            │ dropout_1[0][0]   │
├─────────────────────┼───────────────────┼────────────┼───────────────────┤
│ activation_3        │ (None, 128, 64)   │          0 │ add[0][0]         │
│ (Activation)        │                   │            │                   │
├─────────────────────┼───────────────────┼────────────┼───────────────────┤
│ activation_5        │ (None, 128, 32)   │          0 │ add_1[0][0]       │
│ (Activation)        │                   │            │                   │
├─────────────────────┼───────────────────┼────────────┼───────────────────┤
│ cross_attn_1        │ [(None, 128, 64), │     25,248 │ activation_3[0][… │
│ (CrossStreamAttent… │ (None, 128, 32)]  │            │ activation_5[0][… │
├─────────────────────┼───────────────────┼────────────┼───────────────────┤
│ complex_conv1d_2    │ (None, 128, 96)   │     15,360 │ cross_attn_1[0][… │
│ (ComplexConv1D)     │                   │            │                   │
├─────────────────────┼───────────────────┼────────────┼───────────────────┤
│ conv1d_14 (Conv1D)  │ (None, 128, 48)   │      7,680 │ cross_attn_1[0][… │
├─────────────────────┼───────────────────┼────────────┼───────────────────┤
│ complex_batch_norm… │ (None, 128, 96)   │        384 │ complex_conv1d_2… │
│ (ComplexBatchNorm)  │                   │            │                   │
├─────────────────────┼───────────────────┼────────────┼───────────────────┤
│ batch_normalizatio… │ (None, 128, 48)   │        192 │ conv1d_14[0][0]   │
│ (BatchNormalizatio… │                   │            │                   │
├─────────────────────┼───────────────────┼────────────┼───────────────────┤
│ activation_6        │ (None, 128, 96)   │          0 │ complex_batch_no… │
│ (Activation)        │                   │            │                   │
├─────────────────────┼───────────────────┼────────────┼───────────────────┤
│ activation_8        │ (None, 128, 48)   │          0 │ batch_normalizat… │
│ (Activation)        │                   │            │                   │
├─────────────────────┼───────────────────┼────────────┼───────────────────┤
│ complex_conv1d_3    │ (None, 128, 96)   │     23,040 │ activation_6[0][… │
│ (ComplexConv1D)     │                   │            │                   │
├─────────────────────┼───────────────────┼────────────┼───────────────────┤
│ complex_conv1d_4    │ (None, 128, 96)   │      3,072 │ cross_attn_1[0][… │
│ (ComplexConv1D)     │                   │            │                   │
├─────────────────────┼───────────────────┼────────────┼───────────────────┤
│ conv1d_15 (Conv1D)  │ (None, 128, 48)   │     11,520 │ activation_8[0][… │
├─────────────────────┼───────────────────┼────────────┼───────────────────┤
│ conv1d_16 (Conv1D)  │ (None, 128, 48)   │      1,536 │ cross_attn_1[0][… │
├─────────────────────┼───────────────────┼────────────┼───────────────────┤
│ complex_batch_norm… │ (None, 128, 96)   │        384 │ complex_conv1d_3… │
│ (ComplexBatchNorm)  │                   │            │                   │
├─────────────────────┼───────────────────┼────────────┼───────────────────┤
│ complex_batch_norm… │ (None, 128, 96)   │        384 │ complex_conv1d_4… │
│ (ComplexBatchNorm)  │                   │            │                   │
├─────────────────────┼───────────────────┼────────────┼───────────────────┤
│ batch_normalizatio… │ (None, 128, 48)   │        192 │ conv1d_15[0][0]   │
│ (BatchNormalizatio… │                   │            │                   │
├─────────────────────┼───────────────────┼────────────┼───────────────────┤
│ batch_normalizatio… │ (None, 128, 48)   │        192 │ conv1d_16[0][0]   │
│ (BatchNormalizatio… │                   │            │                   │
├─────────────────────┼───────────────────┼────────────┼───────────────────┤
│ add_2 (Add)         │ (None, 128, 96)   │          0 │ complex_batch_no… │
│                     │                   │            │ complex_batch_no… │
├─────────────────────┼───────────────────┼────────────┼───────────────────┤
│ add_3 (Add)         │ (None, 128, 48)   │          0 │ batch_normalizat… │
│                     │                   │            │ batch_normalizat… │
├─────────────────────┼───────────────────┼────────────┼───────────────────┤
│ activation_7        │ (None, 128, 96)   │          0 │ add_2[0][0]       │
│ (Activation)        │                   │            │                   │
├─────────────────────┼───────────────────┼────────────┼───────────────────┤
│ activation_9        │ (None, 128, 48)   │          0 │ add_3[0][0]       │
│ (Activation)        │                   │            │                   │
├─────────────────────┼───────────────────┼────────────┼───────────────────┤
│ cross_attn_2        │ [(None, 128, 96), │     56,304 │ activation_7[0][… │
│ (CrossStreamAttent… │ (None, 128, 48)]  │            │ activation_9[0][… │
├─────────────────────┼───────────────────┼────────────┼───────────────────┤
│ complex_conv1d_5    │ (None, 128, 96)   │     23,040 │ cross_attn_2[0][… │
│ (ComplexConv1D)     │                   │            │                   │
├─────────────────────┼───────────────────┼────────────┼───────────────────┤
│ conv1d_21 (Conv1D)  │ (None, 128, 64)   │     15,360 │ cross_attn_2[0][… │
├─────────────────────┼───────────────────┼────────────┼───────────────────┤
│ conv1d_24 (Conv1D)  │ (None, 128, 16)   │        224 │ iq_input[0][0]    │
├─────────────────────┼───────────────────┼────────────┼───────────────────┤
│ complex_batch_norm… │ (None, 128, 96)   │        384 │ complex_conv1d_5… │
│ (ComplexBatchNorm)  │                   │            │                   │
├─────────────────────┼───────────────────┼────────────┼───────────────────┤
│ batch_normalizatio… │ (None, 128, 64)   │        256 │ conv1d_21[0][0]   │
│ (BatchNormalizatio… │                   │            │                   │
├─────────────────────┼───────────────────┼────────────┼───────────────────┤
│ batch_normalizatio… │ (None, 128, 16)   │         64 │ conv1d_24[0][0]   │
│ (BatchNormalizatio… │                   │            │                   │
├─────────────────────┼───────────────────┼────────────┼───────────────────┤
│ activation_10       │ (None, 128, 96)   │          0 │ complex_batch_no… │
│ (Activation)        │                   │            │                   │
├─────────────────────┼───────────────────┼────────────┼───────────────────┤
│ activation_12       │ (None, 128, 64)   │          0 │ batch_normalizat… │
│ (Activation)        │                   │            │                   │
├─────────────────────┼───────────────────┼────────────┼───────────────────┤
│ activation_14       │ (None, 128, 16)   │          0 │ batch_normalizat… │
│ (Activation)        │                   │            │                   │
├─────────────────────┼───────────────────┼────────────┼───────────────────┤
│ complex_conv1d_6    │ (None, 128, 96)   │     23,040 │ activation_10[0]… │
│ (ComplexConv1D)     │                   │            │                   │
├─────────────────────┼───────────────────┼────────────┼───────────────────┤
│ conv1d_22 (Conv1D)  │ (None, 128, 64)   │     20,480 │ activation_12[0]… │
├─────────────────────┼───────────────────┼────────────┼───────────────────┤
│ conv1d_23 (Conv1D)  │ (None, 128, 64)   │      3,072 │ cross_attn_2[0][… │
├─────────────────────┼───────────────────┼────────────┼───────────────────┤
│ conv1d_25 (Conv1D)  │ (None, 128, 16)   │      1,280 │ activation_14[0]… │
├─────────────────────┼───────────────────┼────────────┼───────────────────┤
│ complex_batch_norm… │ (None, 128, 96)   │        384 │ complex_conv1d_6… │
│ (ComplexBatchNorm)  │                   │            │                   │
├─────────────────────┼───────────────────┼────────────┼───────────────────┤
│ batch_normalizatio… │ (None, 128, 64)   │        256 │ conv1d_22[0][0]   │
│ (BatchNormalizatio… │                   │            │                   │
├─────────────────────┼───────────────────┼────────────┼───────────────────┤
│ batch_normalizatio… │ (None, 128, 64)   │        256 │ conv1d_23[0][0]   │
│ (BatchNormalizatio… │                   │            │                   │
├─────────────────────┼───────────────────┼────────────┼───────────────────┤
│ batch_normalizatio… │ (None, 128, 16)   │         64 │ conv1d_25[0][0]   │
│ (BatchNormalizatio… │                   │            │                   │
├─────────────────────┼───────────────────┼────────────┼───────────────────┤
│ add_4 (Add)         │ (None, 128, 96)   │          0 │ complex_batch_no… │
│                     │                   │            │ cross_attn_2[0][… │
├─────────────────────┼───────────────────┼────────────┼───────────────────┤
│ add_5 (Add)         │ (None, 128, 64)   │          0 │ batch_normalizat… │
│                     │                   │            │ batch_normalizat… │
├─────────────────────┼───────────────────┼────────────┼───────────────────┤
│ activation_15       │ (None, 128, 16)   │          0 │ batch_normalizat… │
│ (Activation)        │                   │            │                   │
├─────────────────────┼───────────────────┼────────────┼───────────────────┤
│ activation_11       │ (None, 128, 96)   │          0 │ add_4[0][0]       │
│ (Activation)        │                   │            │                   │
├─────────────────────┼───────────────────┼────────────┼───────────────────┤
│ activation_13       │ (None, 128, 64)   │          0 │ add_5[0][0]       │
│ (Activation)        │                   │            │                   │
├─────────────────────┼───────────────────┼────────────┼───────────────────┤
│ global_average_poo… │ (None, 16)        │          0 │ activation_15[0]… │
│ (GlobalAveragePool… │                   │            │                   │
├─────────────────────┼───────────────────┼────────────┼───────────────────┤
│ cross_attn_3        │ [(None, 128, 96), │     62,496 │ activation_11[0]… │
│ (CrossStreamAttent… │ (None, 128, 64)]  │            │ activation_13[0]… │
├─────────────────────┼───────────────────┼────────────┼───────────────────┤
│ dense (Dense)       │ (None, 32)        │        544 │ global_average_p… │
├─────────────────────┼───────────────────┼────────────┼───────────────────┤
│ dropout_8 (Dropout) │ (None, 128, 96)   │          0 │ cross_attn_3[0][… │
├─────────────────────┼───────────────────┼────────────┼───────────────────┤
│ dropout_9 (Dropout) │ (None, 128, 64)   │          0 │ cross_attn_3[0][… │
├─────────────────────┼───────────────────┼────────────┼───────────────────┤
│ snr_pred (Dense)    │ (None, 1)         │         33 │ dense[0][0]       │
├─────────────────────┼───────────────────┼────────────┼───────────────────┤
│ snr_gate            │ (None, 128, 160)  │     25,920 │ dropout_8[0][0],  │
│ (SNRAdaptiveGate)   │                   │            │ dropout_9[0][0],  │
│                     │                   │            │ snr_pred[0][0]    │
├─────────────────────┼───────────────────┼────────────┼───────────────────┤
│ pos_emb             │ (None, 128, 160)  │     20,480 │ snr_gate[0][0]    │
│ (LearnedPositionEm… │                   │            │                   │
├─────────────────────┼───────────────────┼────────────┼───────────────────┤
│ bilstm              │ (None, 128, 256)  │    295,936 │ pos_emb[0][0]     │
│ (Bidirectional)     │                   │            │                   │
├─────────────────────┼───────────────────┼────────────┼───────────────────┤
│ global_average_poo… │ (None, 256)       │          0 │ bilstm[0][0]      │
│ (GlobalAveragePool… │                   │            │                   │
├─────────────────────┼───────────────────┼────────────┼───────────────────┤
│ hoc_input           │ (None, 10)        │          0 │ -                 │
│ (InputLayer)        │                   │            │                   │
├─────────────────────┼───────────────────┼────────────┼───────────────────┤
│ dense_3 (Dense)     │ (None, 64)        │     16,448 │ global_average_p… │
├─────────────────────┼───────────────────┼────────────┼───────────────────┤
│ dense_5 (Dense)     │ (None, 32)        │        352 │ hoc_input[0][0]   │
├─────────────────────┼───────────────────┼────────────┼───────────────────┤
│ dense_4 (Dense)     │ (None, 256)       │     16,640 │ dense_3[0][0]     │
├─────────────────────┼───────────────────┼────────────┼───────────────────┤
│ batch_normalizatio… │ (None, 32)        │        128 │ dense_5[0][0]     │
│ (BatchNormalizatio… │                   │            │                   │
├─────────────────────┼───────────────────┼────────────┼───────────────────┤
│ get_item (GetItem)  │ (None, 1, 256)    │          0 │ dense_4[0][0]     │
├─────────────────────┼───────────────────┼────────────┼───────────────────┤
│ dropout_10          │ (None, 32)        │          0 │ batch_normalizat… │
│ (Dropout)           │                   │            │                   │
├─────────────────────┼───────────────────┼────────────┼───────────────────┤
│ multiply (Multiply) │ (None, 128, 256)  │          0 │ bilstm[0][0],     │
│                     │                   │            │ get_item[0][0]    │
├─────────────────────┼───────────────────┼────────────┼───────────────────┤
│ dense_6 (Dense)     │ (None, 64)        │      2,112 │ dropout_10[0][0]  │
├─────────────────────┼───────────────────┼────────────┼───────────────────┤
│ global_average_poo… │ (None, 256)       │          0 │ multiply[0][0]    │
│ (GlobalAveragePool… │                   │            │                   │
├─────────────────────┼───────────────────┼────────────┼───────────────────┤
│ batch_normalizatio… │ (None, 64)        │        256 │ dense_6[0][0]     │
│ (BatchNormalizatio… │                   │            │                   │
├─────────────────────┼───────────────────┼────────────┼───────────────────┤
│ layer_normalizatio… │ (None, 256)       │        512 │ global_average_p… │
│ (LayerNormalizatio… │                   │            │                   │
├─────────────────────┼───────────────────┼────────────┼───────────────────┤
│ dropout_11          │ (None, 64)        │          0 │ batch_normalizat… │
│ (Dropout)           │                   │            │                   │
├─────────────────────┼───────────────────┼────────────┼───────────────────┤
│ deep_hoc_fusion     │ (None, 320)       │          0 │ layer_normalizat… │
│ (Concatenate)       │                   │            │ dropout_11[0][0]  │
├─────────────────────┼───────────────────┼────────────┼───────────────────┤
│ dense_7 (Dense)     │ (None, 128)       │     41,088 │ deep_hoc_fusion[… │
├─────────────────────┼───────────────────┼────────────┼───────────────────┤
│ dropout_12          │ (None, 128)       │          0 │ dense_7[0][0]     │
│ (Dropout)           │                   │            │                   │
├─────────────────────┼───────────────────┼────────────┼───────────────────┤
│ output (Dense)      │ (None, 11)        │      1,419 │ dropout_12[0][0]  │
└─────────────────────┴───────────────────┴────────────┴───────────────────┘
 Total params: 763,068 (2.91 MB)
 Trainable params: 760,604 (2.90 MB)
 Non-trainable params: 2,464 (9.62 KB)

   Parameters: 763,068
   ✓ Parameter count OK

[5/8] Compiling ...

[6/8] Training ...
   Contributions : Cross-attn fusion + SNR gate + HOC branch
   HOC features  : 10 (C20,C21,C40,C41,C42,C60,C61,C62,C63,|C42|)
…
